====================================================================================================
Layer (type:depth-idx)                             Output Shape              Param #
====================================================================================================
GPT2LMHeadModel                                    [1, 12, 32, 64]           --
├─GPT2Model: 1-1                                   [1, 12, 32, 64]           --
│    └─Embedding: 2-1                              [1, 32, 768]              38,597,376
│    └─Embedding: 2-2                              [1, 32, 768]              786,432
│    └─Dropout: 2-3                                [1, 32, 768]              --
│    └─ModuleList: 2-4                             --                        --
│    │    └─GPT2Block: 3-1                         [1, 32, 768]              7,087,872
│    │    └─GPT2Block: 3-32                        --                        (recursive)
│    │    └─GPT2Block: 3-3                         --                        (recursive)
│    │    └─GPT2Block: 3-4                         [1, 32, 768]              7,087,872
│    │    └─GPT2Block: 3-32                        --                        (recursive)
│    │    └─GPT2Block: 3-6                         --                        (recursive)
│    │    └─GPT2Block: 3-7                         [1, 32, 768]              7,087,872
│    │    └─GPT2Block: 3-32                        --                        (recursive)
│    │    └─GPT2Block: 3-9                         --                        (recursive)
│    │    └─GPT2Block: 3-10                        [1, 32, 768]              7,087,872
│    │    └─GPT2Block: 3-32                        --                        (recursive)
│    │    └─GPT2Block: 3-12                        --                        (recursive)
│    │    └─GPT2Block: 3-13                        [1, 32, 768]              7,087,872
│    │    └─GPT2Block: 3-32                        --                        (recursive)
│    │    └─GPT2Block: 3-15                        --                        (recursive)
│    │    └─GPT2Block: 3-16                        [1, 32, 768]              7,087,872
│    │    └─GPT2Block: 3-32                        --                        (recursive)
│    │    └─GPT2Block: 3-18                        --                        (recursive)
│    │    └─GPT2Block: 3-19                        [1, 32, 768]              7,087,872
│    │    └─GPT2Block: 3-32                        --                        (recursive)
│    │    └─GPT2Block: 3-21                        --                        (recursive)
│    │    └─GPT2Block: 3-22                        [1, 32, 768]              7,087,872
│    │    └─GPT2Block: 3-32                        --                        (recursive)
│    │    └─GPT2Block: 3-24                        --                        (recursive)
│    │    └─GPT2Block: 3-25                        [1, 32, 768]              7,087,872
│    │    └─GPT2Block: 3-32                        --                        (recursive)
│    │    └─GPT2Block: 3-27                        --                        (recursive)
│    │    └─GPT2Block: 3-28                        [1, 32, 768]              7,087,872
│    │    └─GPT2Block: 3-32                        --                        (recursive)
│    │    └─GPT2Block: 3-30                        --                        (recursive)
│    │    └─GPT2Block: 3-31                        [1, 32, 768]              7,087,872
│    │    └─GPT2Block: 3-32                        --                        (recursive)
│    │    └─GPT2Block: 3-33                        --                        (recursive)
│    │    └─GPT2Block: 3-34                        [1, 32, 768]              7,087,872
│    └─LayerNorm: 2-5                              [1, 32, 768]              1,536
├─Linear: 1-2                                      [1, 32, 50257]            38,597,376
====================================================================================================
Total params: 188,997,888
Trainable params: 188,997,888
Non-trainable params: 0
Total mult-adds (G): 5.60
====================================================================================================
Input size (MB): 0.00
Forward/backward pass size (MB): 39.41
Params size (MB): 652.15
Estimated Total Size (MB): 691.56
…
